models/simple_classifier_weights.npz (npz, 1850 bytes, 4 tensors)

layer_0_weights f8 [3, 16]
0.00377244979365433 -0.03773614988214967 -0.644293606995795 -0.11595535332682186 -0.42298861385226333 0.5262602506756876 -0.16660504820003513 -0.0638388835946477
-0.0561957885634721 -0.0003649958209222345 0.3324285911452895 -0.0823189746576177 0.08488515408753486 0.3852629876718058 0.3894357720737069 0.13343774639489867
0.004105112209506077 -0.01658375802068552 -0.7816751951339591 -0.16948802810736208 -0.49502449892664174 0.8973980915786813 -0.1754994836555686 -0.08077554873823772
-0.08985235834986179 0.00371686645483613 0.574845948445086 -0.1274482905821969 0.14971999632252453 0.6809810629921762 0.678284673853014 0.22443799424523428
0.014298976044376162 0.023023976278744085 0.7251761086204983 0.14108565401681702 0.46262014962727194 -0.6812466025965395 0.21255965645126462 0.0784238860618141
0.10837642747628551 0.00504634023628156 -0.4201150318055123 0.11831529858540106 -0.12016576787471296 -0.49808263211584775 -0.49334986910484163 -0.16275158250540628
00000000: 175f aa8f 66e7 6e3f ced7 3d13 2752 a3bf
00000010: be33 62a0 0d9e e4bf 12b7 5502 40af bdbf
00000020: 9fda c4d5 3e12 dbbf 65c7 babc 1fd7 e03f
00000030: 4e0f af70 5053 c5bf be8d 40bd be57 b0bf
00000040: 8428 1bc4 b1c5 acbf 9e92 311d 9deb 37bf
00000050: 235c ce91 8246 d53f 06a6 fe37 db12 b5bf
00000060: 52cd b890 08bb b53f d237 1a17 26a8 d83f
00000070: bfbd 3c04 84ec d83f 43b5 68f2 7c14 c13f
00000080: a4d5 faaa 85d0 703f 72de 5f29 55fb 90bf
00000090: 943b e6b2 7b03 e9bf 606f e4a0 c8b1 c5bf
000000a0: 29f5 663c 7bae dfbf 0f58 da33 7cb7 ec3f
000000b0: aafd 615f c476 c6bf ecad 25d4 b4ad b4bf
000000c0: ddc4 946c 9000 b7bf c873 bf7b d572 6e3f
000000d0: 71e9 9954 2365 e23f 65a6 fdbf 3950 c0bf
000000e0: 0c99 e15b 062a c33f 12e5 57cc 98ca e53f
000000f0: 8174 720f 82b4 e53f d5ad a15a 62ba cc3f
00000100: 11a8 d013 c848 8d3f c078 90e4 9893 973f
00000110: ddb2 cb86 a434 e73f 9fef f73e 180f c23f
00000120: 24aa 478b 919b dd3f 4f39 d5ac c5cc e5bf
00000130: 601e 74a2 2735 cb3f 4358 dc79 9613 b43f
00000140: 90ff aabb 8ebe bb3f 6016 78a4 78ab 743f
00000150: 4569 8a28 2ae3 dabf 1370 0a52 e949 be3f
00000160: ede0 1e0b 2fc3 bebf 9f29 e9f9 95e0 dfbf
00000170: 9fa2 5254 0b93 dfbf d2d1 1d3a 0bd5 c4bf

layer_0_biases f8 [1, 16]
-0.005517133244820912 0.02686274067246094 0.9431240696615139 0.19349044802775447 0.6007165568120018 0.39427106195112877 0.239140858634957 0.09882329045059739
0.11849491444536912 -0.004213643552737817 0.24057873928881957 0.15091375908547427 0.06586619774439247 0.2802504410171007 0.2824983075241496 0.09611140188899532
00000000: d6b8 aa2d 2299 76bf 5735 ad02 e881 9b3f
00000010: 3788 6887 122e ee3f 4b0d 2f85 4bc4 c83f
00000020: 758b b5ed 1139 e33f e5b6 35b1 bc3b d93f
00000030: 66bc 7ceb 2a9c ce3f 4b84 91b0 7b4c b93f
00000040: 7301 49c6 ae55 be3f 209e 1854 5342 71bf
00000050: bcdf adbc 48cb ce3f b6ee e45d 2451 c33f
00000060: 555a 396d 9bdc b03f e0e9 b68b 9fef d13f
00000070: f075 ffc7 7314 d23f 75cd e2bf c19a b83f

layer_1_weights f8 [16, 2]
-0.007694566081711819 -0.012236233759164114 0.040359421303382714 -0.03351549860906208 1.0916673198455176 -1.1158115920275493 0.22344641976947074 -0.22141479145711448
0.7076286776758671 -0.7045123534392594 -0.9210075306297485 0.922261173930699 0.2946193587722137 -0.2699706142537042 0.12343245845946894 -0.10667592848961112
0.13159152121158535 -0.13769760375468637 -0.008608445262560568 0.015741305663887893 -0.5711538620056129 0.5898241113429178 0.1703437216751251 -0.17430605876077046
-0.15990230409973288 0.15069048723475556 -0.6735002364529614 0.6955300604854395 -0.6807151699934711 0.6853628710414185 -0.22741174609806009 0.22788610319834107
00000000: 0187 d85a 5684 7fbf e516 937e 4f0f 89bf
00000010: 68c2 2a75 fda9 a43f 8cbf de84 f128 a1bf
00000020: 5593 cd26 7877 f13f a718 8441 5dda f1bf
00000030: 9fb9 a86c e499 cc3f 0759 14e4 5157 ccbf
00000040: e08b 8ae5 e4a4 e63f a0c9 b47d 5d8b e6bf
00000050: 6895 edc8 e478 edbf b8e4 8cdd 2983 ed3f
00000060: 507d ac27 0bdb d23f b971 c6d3 3247 d1bf
00000070: 092a 5904 4599 bf3f e520 2218 1d4f bbbf
00000080: 646f 04b0 fdd7 c03f be95 6e38 13a0 c1bf
00000090: 8b11 faf6 4da1 81bf a648 1724 7d1e 903f
000000a0: e48a c976 e446 e2bf e585 93d0 d6df e23f
000000b0: 2738 d6b4 d2cd c53f 0da3 ef32 a94f c6bf
000000c0: 46ea 54bf ad77 c4bf 1dec 3e6d d349 c33f
000000d0: 543d 2d5e 508d e5bf 886f e541 c841 e63f
000000e0: d16a 202e 6bc8 e5bf 737f a01d 7eee e53f
000000f0: 8ad4 1bfe d31b cdbf 9a91 3930 5f2b cd3f

layer_1_biases f8 [1, 2]
0.5662583444424277 -0.5662583444424281
00000000: 5ff4 ced1 c91e e23f 62f4 ced1 c91e e2bf
