models/simple_regressor_weights.npz (npz, 3132 bytes, 6 tensors)

layer_0_weights f8 [2, 16]
0.21302286867109552 -0.08785615004849365 -0.13657578843433782 0.21401332733882286 0.002430881356144131 -0.007848196404172425 -0.19233920227586204 0.2313344330022145
-0.018211122113692937 -0.13452928687611976 0.04656567705853056 0.1404161889901921 0.13365813222229483 0.24090087555805595 0.01251324575305587 -0.075849973275072
0.20293488248735486 -0.08396855027380146 -0.14536768688615678 0.18845093045322098 -0.001700376526358218 0.009200732614105383 -0.19225249296339314 0.22832849628381294
-0.030576489779019007 -0.13204365674001337 0.02594604612218003 0.1381641055107194 0.1322482968489619 0.22254323921816554 -0.011296392890135714 -0.08541443372189138
00000000: df08 1f57 5544 cb3f a6f3 359b bd7d b6bf
00000010: 5c1d 60c0 507b c1bf 9508 eae8 c964 cb3f
00000020: 3061 9a7d ede9 633f b3a8 1b17 b712 80bf
00000030: 36bc c12b 929e c8bf 9273 17e0 5d9c cd3f
00000040: 876a 9bb7 efa5 92bf 7c5a be73 4138 c1bf
00000050: a33b 2ad8 74d7 a73f b25a c55d 28f9 c13f
00000060: 1c9e 5ead b51b c13f 38c0 0c03 d7d5 ce3f
00000070: eea0 356a 8ba0 893f c570 9e62 e76a b3bf
00000080: f619 c02d c5f9 c93f d089 5181 f67e b5bf
00000090: 751d 898a 689b c2bf ea42 99fb 281f c83f
000000a0: a301 9564 e5db 5bbf 4922 6a6d d5d7 823f
000000b0: 5216 edcc ba9b c8bf ad54 2440 de39 cd3f
000000c0: f26b 827e 714f 9fbf 8fda ab79 cee6 c0bf
000000d0: ec98 38ae 9991 9a3f 2e27 5385 5caf c13f
000000e0: bc80 f51e 83ed c03f 8ca7 31ff 4b7c cc3f
000000f0: f60a 3530 9022 87bf 3f1f 7167 b8dd b5bf

layer_0_biases f8 [1, 16]
0.6787412971609945 0.02760300103779701 0.04065381133263272 0.656661212373865 -0.0013121151180863907 -0.0023467003777667057 0.05966110221714276 0.47446860415487396
0.006704569567225882 0.03874575941908384 0.12157576230658401 0.2806994843079153 0.2866681853490549 0.4843464257552703 -0.002485263465091694 0.020527131897167546
00000000: ec08 38ab 3fb8 e53f 8248 ea0a f643 9c3f
00000010: 6548 438c 93d0 a43f 9951 f65f 5e03 e53f
00000020: 4144 54e1 687f 55bf ad58 082c 6339 63bf
00000030: a75c bb65 e68b ae3f a7bb 7490 b15d de3f
00000040: 0d5e 6630 4076 7b3f 9c96 20f3 7bd6 a33f
00000050: fcd1 17d3 961f bf3f e7d1 46f8 faf6 d13f
00000060: d02e 3884 c558 d23f 8c6a a326 88ff de3f
00000070: ec90 bea9 f95b 64bf 324f b780 1005 953f

layer_1_weights f8 [16, 8]
0.05261400696965155 0.005969541712297537 0.006281094074237626 0.009649475694119645 0.5842599376020943 0.44913433408506254 -0.0022466043550313517 0.003746484438317115
-0.012016126498166333 0.0070596848939471655 -0.00783615236557839 0.010066748549093736 -0.07972169258195783 -0.04645916060883642 0.08681422585349113 -0.012498565287275162
-0.012241471100195035 -0.002307001143384009 -0.00580992442652512 -0.023109992354204467 -0.13438524442804378 -0.10575732816730993 0.10969866918310657 -0.006172668893413488
0.04851663864395739 -0.003956557783402495 -0.001509425539054691 0.005453247265260977 0.5739668646149473 0.4229468306012196 -0.013153943663989498 -0.004853502582209221
-0.005563831236021149 0.007338056980105434 0.015543484258490167 0.02428368372558008 0.0003223074084441129 -0.009966866940710693 -0.006350214325733129 0.0003484949680821989
-0.020120516620585525 -0.011430267450003077 0.0046903606927136505 0.007424877755110502 -0.011417176953058128 -0.0039787002490107104 0.015406932868766095 0.019909825861527022
-0.013342180781132347 -0.008003701268500722 0.009012002693568636 0.014390419622108911 -0.17273942930333624 -0.13291171920083206 0.1750307403034011 -0.0024891276041305276
0.046429876434394834 0.006263584162011923 0.0012647782540213387 -0.013175508866646316 0.46796040928203575 0.32990728929529456 -0.011859027973378313 0.012490869193486817
0.007951612693742147 -0.002814139491051809 -0.003899188195682425 -0.0018224629597366705 -0.01417404628814992 -0.02409806058996099 0.02478210822579111 0.012512341951113566
-0.014762144022714528 -0.008903052326445103 0.0036021061022029808 -0.011556332534795592 -0.1375535931788799 -0.07455392435943105 0.11412134089557549 -0.014523797972099945
0.010418542774881596 -0.00959318809686046 -0.012294789409948432 -0.0031010345608316393 0.1108320518636477 0.07052378053891906 -0.018723429647357938 0.012393278668050988
0.02725476119942976 0.01061904461607411 0.02142033979335561 -0.0017647032164742956 0.25823126487983655 0.22513558174854653 0.0004697818673745878 0.012581001321894115
0.02725500208744138 0.008712575824852442 -0.002553632188174508 -0.006771317668673371 0.27052374797463763 0.20843832238265406 0.0022317949394289934 -0.0167263463694371
0.02911499166577354 -0.008763070002885825 -0.01038030810866846 -0.005167177088713609 0.47461743749960306 0.33918431476722616 -0.01360231491989397 -0.005468870713777857
0.0013376941899527713 -0.00798490983245492 -0.005199027742149789 -0.004273536635475848 -0.014516002347923647 -0.017087004351199035 0.019734908613385074 -0.0024399291860854
-0.012943290578875735 -0.006905986476306809 0.013000931941192817 -0.0033085135385555377 -0.07424556953066665 -0.055250349632929796 0.06824053062193992 0.006166365751787596
00000000: ed09 7e1e 39f0 aa3f d2a3 d2a6 8473 783f
00000010: 9a77 1c5a 34ba 793f f202 3db4 1ac3 833f
00000020: daa5 8be5 41b2 e23f 3efd 19ef 9dbe dc3f
00000030: 42d0 6b87 7867 62bf a4c4 6684 f2b0 6e3f
00000040: 527d ac32 e99b 88bf 9345 d5bb 9dea 7c3f
00000050: a2d2 1791 660c 80bf 8401 5d1e e09d 843f
00000060: a8d8 6b0e a468 b4bf b741 d4be 7ec9 a7bf
00000070: 0c49 de04 7539 b63f 1e03 3f09 d998 89bf
00000080: 87fc 3d70 0e12 89bf 102f cece 21e6 62bf
00000090: 466d 77b6 25cc 77bf 900c 7d55 25aa 97bf
000000a0: b813 f122 8933 c1bf c47a ca89 e912 bbbf
000000b0: e160 8e44 3615 bc3f 7082 6b30 8348 79bf
000000c0: 7046 9340 2cd7 a83f 5019 8d64 c034 70bf
000000d0: def8 dc54 fdba 58bf 83ac 94ea 2456 763f
000000e0: 9148 10c2 ef5d e23f 0443 5895 8f11 db3f
000000f0: cd55 cd6e 74f0 8abf 3047 c92d 44e1 73bf
00000100: 2cd1 2f93 19ca 76bf 4d8a eeab 820e 7e3f
00000110: bee7 7224 43d5 8f3f 5b0a b66d d2dd 983f
00000120: 847a 4dc7 6b1f 353f ff75 6e3c 8269 84bf
00000130: 8136 a0ad ae02 7abf beb7 a07d c6d6 363f
00000140: b6c6 7403 799a 94bf 7cf1 0e87 c068 87bf
00000150: 6ba2 811c 3336 733f 24f3 2872 8c69 7e3f
00000160: cd1b 028d e361 87bf 898f 3337 f84b 70bf
00000170: 9e94 6c86 ab8d 8f3f 24fa c6cb 3d63 943f
00000180: b7f4 e530 2553 8bbf 4fb2 8f99 3e64 80bf
00000190: cf04 b986 e274 823f 62ad 386d b978 8d3f
000001a0: 4a34 cb5b 531c c6bf ba81 9c4f 4003 c1bf
000001b0: 5aea b244 6867 c63f b84f f834 1464 64bf
000001c0: d8a3 af21 a8c5 a73f a3f8 1a12 d8a7 793f
000001d0: 3bb3 364f ddb8 543f 82f2 85dd c2fb 8abf
000001e0: 841a 6c37 10f3 dd3f 2c0f 8f76 331d d53f
000001f0: 6ecd 76ca 8b49 88bf 6b24 7a15 d094 893f
00000200: d2b9 c263 ef48 803f 0c0b 93a2 ad0d 67bf
00000210: 9d45 01b9 30f1 6fbf 67fa dab3 f6db 5dbf
00000220: 12a6 134a 4807 8dbf fd0c 8678 29ad 98bf
00000230: 093e 6c21 7b60 993f a4ab cf1b 12a0 893f
00000240: 5f07 5f6e 9d3b 8ebf 19ff 9c74 c33b 82bf
00000250: ab5c fbfc 2982 6d3f 7ca1 63b2 d8aa 87bf
00000260: 2346 132c 5b9b c1bf dd86 e94a f715 b3bf
00000270: f212 ec62 0e37 bd3f d758 6e2a a7be 8dbf
00000280: 2ab6 eb23 5156 853f ec85 1fe9 97a5 83bf
00000290: 3d5d 6ab3 022e 89bf cda0 b840 5767 69bf
000002a0: 745a 1a46 7d5f bc3f a843 01b3 d80d b23f
000002b0: ba76 0418 3c2c 93bf 9352 8eb4 a561 893f
000002c0: ee1f 0c10 ace8 9b3f 04f7 b90a 70bf 853f
000002d0: 6fd4 86ab 36ef 953f 9d94 85a6 b3e9 5cbf
000002e0: cfab 5d6d dc86 d03f 1052 6324 3ed1 cc3f
000002f0: c059 b2c1 a1c9 3e3f 07e7 d369 11c4 893f
00000300: c6cd 783a bce8 9b3f 5371 da21 e6d7 813f
00000310: 09c0 7ed7 5aeb 64bf a624 01bf 3dbc 7bbf
00000320: 20ea 95d6 4250 d13f e1ec ee60 1bae ca3f
00000330: 8cd7 d6c8 6948 623f b19e 8d1a b620 91bf
00000340: 347a 1c04 52d0 9d3f 1681 9958 5ff2 81bf
00000350: 1b07 cb5e 4542 85bf f917 bd89 2d2a 75bf
00000360: 0004 0bd1 2160 de3f 3373 cf20 32b5 d53f
00000370: 50c1 d8cd 87db 8bbf 60a3 c9cd 8666 76bf
00000380: eabb 1033 b2ea 553f 7e37 bc74 645a 80bf
00000390: a9fa f961 934b 75bf 31eb 66c1 2081 71bf
000003a0: 17ed d2da 90ba 8dbf 8102 8073 417f 91bf
000003b0: f40d 564c 6335 943f 36a1 e101 e7fc 63bf
000003c0: 6842 e90d 0382 8abf 0869 ffa0 7349 7cbf
000003d0: 9320 0a8c 3ba0 8a3f ec79 49ae 741a 6bbf
000003e0: c9d1 01f5 c101 b3bf 0831 8819 c649 acbf
000003f0: 596d 481f 3678 b13f ce5c d333 e741 793f

layer_1_biases f8 [1, 8]
0.02943656718084519 -0.011969283405654693 -0.006571365980643514 -0.0003285102126596394 0.299912053389048 0.21502346786082438 0.2159261050303616 -0.007850957064205823
00000000: 3e98 6495 9e24 9e3f 2b4f 4506 5a83 88bf
00000010: 496d a19f 93ea 7abf ac95 a99e 7c87 35bf
00000020: d3db 3e53 c231 d33f 04d9 2a95 e385 cb3f
00000030: d9a1 ba73 77a3 cb3f 8e1d aa9e 2914 80bf

layer_2_weights f8 [8, 1]
0.10458363790822621 -0.009218736199519241 -0.004468605100624321 0.01698542972070432 1.190944610081515 0.8828098675472305 -0.33770911793690456 -0.013843572599967748
00000000: a735 8348 fec5 ba3f e12a e6d3 45e1 82bf
00000010: 9735 410c ac4d 72bf eebe a2e4 a064 913f
00000020: 7c5c 7aef 1b0e f33f 4072 b67a fa3f ec3f
00000030: 9966 46b4 069d d5bf 9401 9ddc 045a 8cbf

layer_2_biases f8 [1, 1]
0.9734518455328177
00000000: df6a 197c 8426 ef3f
