models/simple_classifier_v2_weights.npz (npz, 1850 bytes, 4 tensors)

layer_0_weights f8 [3, 16]
000000 81 3b 6d ee a8 8b 5e 3f 9d 07 1d e9 07 09 e4 3f
       0.001864352199578895 0.6261024048801463
000010 6d 5b 19 47 2e c4 d3 3f 10 f7 9f be 3b 38 b8 3f
       0.3088489240957902 0.09460805324485144
000020 4c 54 d3 91 eb 9c 9a bf 57 64 90 e9 70 4f d5 bf
       -0.025989228034479603 -0.3329736977480641
000030 d9 90 54 e3 aa 9b d6 bf d6 48 7d 97 d4 5c bc 3f
       -0.35325119209507033 0.11079148004981518
000040 42 ae 3a 86 9b aa d7 bf d8 8e a8 e8 32 99 c7 bf
       -0.36978805645296486 -0.18436275825762638
000050 0e a6 64 20 39 f9 d5 3f ae 2a 2c 12 52 00 2e 3f
       0.34333637393373884 0.00022889139025779798
000060 b4 6e 8f 46 23 7f d1 bf bd c5 37 8b 81 f7 d2 3f
       -0.27338487520840293 0.29635656924719084
000070 fd 04 8e 4a 3b 47 da bf 80 94 be 98 b2 93 90 bf
       -0.4105976322244514 -0.01618842179563673
000080 cf b9 65 96 60 f4 84 bf 80 14 49 13 f0 92 f1 3f
       -0.01023173769928301 1.0983734849299083
000090 4c 4c 14 74 b7 29 e1 3f e3 46 32 72 23 68 c5 3f
       0.5363423602269761 0.16724055362697418
0000a0 38 5b 48 96 94 fc 9c bf c7 86 08 c7 53 c3 d7 bf
       -0.02830726783039525 -0.3712968295750269
0000b0 ca 1f 3b 89 ed d8 db bf e2 b4 90 52 91 8b c8 3f
       -0.4351152267595323 0.19175926715380515
0000c0 26 9d 0e 99 4f bc dc bf 9e 3f c3 77 6f 6c cc bf
       -0.44899358698826786 -0.2220591864374883
0000d0 a5 d5 d2 df 4a be e2 3f c4 11 35 35 b7 86 59 bf
       0.5857290622285986 -0.0015579976214478023
0000e0 be 8e 2f ee df aa d2 bf f2 43 0b f6 66 55 e0 3f
       -0.2916793657334259 0.5104250722453101
0000f0 2c 36 dc b4 e0 8d e0 bf 81 f7 0c c1 9c 37 97 bf
       -0.5173190624643147 -0.022673081667782483
000100 1f 62 9a 81 e3 9f 88 3f d0 54 76 4b 3e 2c ea bf
       0.012023713486358166 -0.8179007982131683
000110 8b 26 5e cb 2e c1 d8 bf 54 44 8b 4f 0b d7 bf bf
       -0.38679094181188906 -0.12437506381981339
000120 96 cf f9 a0 da 59 94 3f 70 98 29 0f 68 5a d5 3f
       0.01987401587980705 0.3336429737158886
000130 81 0e 09 96 06 59 da 3f dd 1f a9 15 4e 42 c2 bf
       0.4116836991490587 -0.1426484685673576
000140 eb 54 36 99 44 14 db 3f 2a f6 eb 55 ce ad cb 3f
       0.42311205827839043 0.2162416381396935
000150 c3 37 f7 34 ac d7 da bf 0f aa 52 eb c4 f1 3c bf
       -0.41941361591750254 -0.0004416566619719628
000160 ce cf e5 65 03 68 d3 3f df 0b 55 25 c3 5d d7 bf
       0.30322346640536757 -0.36509779592250696
000170 0f d5 a7 23 fd d7 de 3f 6f 18 69 ae 65 d9 9c 3f
       0.481932911701123 0.02817305447595014

layer_0_biases f8 [1, 16]
000000 15 39 4e d3 f8 ae 81 3f 97 1a b1 d6 1b ba dd 3f
       0.008634513805898561 0.4644841763114668
000010 c4 5b 5f 94 41 91 cc 3f 47 ae 96 f0 54 d9 b1 3f
       0.22318286652327235 0.06972247003312147
000020 38 bf 1a 26 dd 09 a0 3f 7b 45 94 7f 35 8a dc 3f
       0.031325255299974264 0.4459356065645676
000030 83 21 f3 1c 80 e6 e0 3f 96 89 4d 9d d4 e6 b4 3f
       0.5281372609543243 0.08164719429399833
000040 b5 f6 18 bc 06 6e e1 3f c0 e0 ea 23 73 79 d1 3f
       0.5446809457568721 0.2730377054936177
000050 f7 da 73 bf e5 8f cf 3f 74 f9 e1 97 c6 10 64 bf
       0.24657890175122762 -0.002449405553362977
000060 bd b1 2d ba 01 d0 d7 3f 90 96 17 f7 5a 30 cb 3f
       0.37207072431081284 0.2124131876473041
000070 f8 97 98 fa 55 ee e3 3f 94 20 27 9d 43 48 9f 3f
       0.6228437323049993 0.03054910322842426

layer_1_weights f8 [16, 2]
000000 b0 db 97 6f 36 16 24 3f 17 bf 87 93 3f f5 95 bf
       0.00015324987889161817 -0.02144336069062466
000010 bb a4 c3 57 5f dc f1 bf 52 36 e9 72 39 c3 f1 3f
       -1.1163018635073019 1.1101622093878132
000020 cf 2d 49 2a f3 ac e1 bf 3b 4c bd 8a c3 d2 e0 3f
       -0.5523620439429865 0.5257280072932028
000030 c6 b4 b9 ca 69 19 c6 bf 57 08 d9 6a c1 2a c5 3f
       -0.17265055082990538 0.16536729542900971
000040 4b 02 7e e5 f0 59 a3 3f d3 ed 3e 2b 80 cd a2 bf
       0.037795570387065235 -0.03672409561064751
000050 a8 f6 16 08 c4 f2 e0 3f 0e 89 b3 8e 55 d6 e0 bf
       0.5296344907762505 -0.5261638438353502
000060 a4 42 1f 49 48 a8 e3 3f 1d d0 8d b9 5e d2 e3 bf
       0.6142922809759352 -0.6194299339390487
000070 a1 24 33 b2 34 bc c7 bf e2 8c c1 44 7b 1a ca 3f
       -0.1854310865512945 0.20393315179089827
000080 60 61 35 74 1c 96 e4 3f 63 c5 d1 2f a2 35 e4 bf
       0.6433241147706603 -0.6315470632527361
000090 a7 af ca 28 41 06 d4 3f 01 37 de eb 27 e2 d4 bf
       0.3128817461354125 -0.32630346330630294
0000a0 72 80 f0 7a 1e d3 e2 bf 06 af fd d5 53 ed e2 3f
       -0.5882713700448348 0.5914706401358394
0000b0 0c 1e 49 e7 ca 9b 7b bf a3 d2 6c 93 7b b4 52 3f
       -0.006740372268331917 0.0011416632457443086
0000c0 a7 73 f6 2d 20 7e dc 3f f6 fd 51 c4 9a ed db bf
       0.4451981018881334 -0.43637723132994155
0000d0 55 bb 89 fa a9 9b df bf 7c 67 8a 25 44 01 e1 3f
       -0.49387597529032706 0.5314045651641517
0000e0 51 d0 a3 ae 6c 98 e7 3f f2 b7 65 7b 72 df e6 bf
       0.7373565112052437 -0.7147762689689883
0000f0 be 57 5f 27 fe 92 9d 3f b8 f7 8c 73 97 22 a5 bf
       0.028881045487501693 -0.04127953801660972

layer_1_biases f8 [1, 2]
000000 9d 5e 5a 2d 5f 82 e2 3f 9e 5e 5a 2d 5f 82 e2 bf
       0.5784145246315863 -0.5784145246315864
